…
          "base_uri": "https://localhost:8080/"
        },
        "id": "aHfAcds3gyrq",
        "outputId": "e8d2cff8-82bc-496a-ac6b-448eb91c1f7c"
      },
      "execution_count": null,
      "outputs": [
        {
          "output_type": "stream",
          "name": "stdout",
          "text": [
            "Model: \"sequential\"\n",
            "_________________________________________________________________\n",
            " Layer (type)                Output Shape              Param #   \n",
            "=================================================================\n",
            " conv2d (Conv2D)             (None, 222, 222, 32)      896       \n",
            "                                                                 \n",
            " max_pooling2d (MaxPooling2D  (None, 111, 111, 32)     0         \n",
            " )                                                               \n",
            "                                                                 \n",
            " conv2d_1 (Conv2D)           (None, 109, 109, 64)      18496     \n",
            "                                                                 \n",
            " max_pooling2d_1 (MaxPooling  (None, 54, 54, 64)       0         \n",
            " 2D)                                                             \n",
            "                                                                 \n",
            " conv2d_2 (Conv2D)           (None, 52, 52, 32)        18464     \n",
            "                                                                 \n",
            " max_pooling2d_2 (MaxPooling  (None, 26, 26, 32)       0         \n",
            " 2D)                                                             \n",
            "                                                                 \n",
            " dropout (Dropout)           (None, 26, 26, 32)        0         \n",
            "                                                                 \n",
            " flatten (Flatten)           (None, 21632)             0         \n",
            "                                                                 \n",
            " dense (Dense)               (None, 128)               2769024   \n",
            "                                                                 \n",
            " dropout_1 (Dropout)         (None, 128)               0         \n",
            "                                                                 \n",
            " dense_1 (Dense)             (None, 256)               33024     \n",
            "                                                                 \n",
            " dropout_2 (Dropout)         (None, 256)               0         \n",
            "                                                                 \n",
            " dense_2 (Dense)             (None, 512)               131584    \n",
            "                                                                 \n",
            " dropout_3 (Dropout)         (None, 512)               0         \n",
            "                                                                 \n",
            " dense_3 (Dense)             (None, 128)               65664     \n",
            "                                                                 \n",
            " dense_4 (Dense)             (None, 5)                 645       \n",
            "                                                                 \n",
            "=================================================================\n",
            "Total params: 3,037,797\n",
            "Trainable params: 3,037,797\n",
            "Non-trainable params: 0\n",
            "_________________________________________________________________\n"
          ]
        }
…
